…
2025-03-17 18:01:23 | INFO | fairseq.data.data_utils | loaded 18090 examples from: /home/leew/lra_data/aan/src-bin/valid
2025-03-17 18:01:23 | INFO | fairseq.data.data_utils | loaded 18090 examples from: /home/leew/lra_data/aan/src1-bin/valid
2025-03-17 18:01:23 | INFO | fairseq.data.data_utils | loaded 18090 examples from: /home/leew/lra_data/aan/label-bin/valid
2025-03-17 18:01:23 | INFO | fairseq.tasks.long_range_arena | Loaded valid with #samples: 18090
2025-03-17 18:01:23 | INFO | fairseq_cli.train | LRAModel(
  (encoder): LRAEncoder(
    (encoder): HPformerLRAEncoder(
      (dropout_module): FairseqDropout(p=0.1)
      (embed_tokens): Embedding(105, 128, padding_idx=1)
      (embed_positions): SinusoidalPositionalEmbedding()
      (tdhp): TDHPB_Layer(
        (block_level_att): Attention()
        (step_level_att): Attention()
        (fusion_lin): Linear(in_features=256, out_features=128, bias=True)
      )
      (layers): ModuleList(
        (0): HPformerSentenceEncoderLayer(
          (dropout_module): FairseqDropout(p=0.1)
          (activation_dropout_module): FairseqDropout(p=0.0)
          (self_attn): MultiheadAttention(
            (output_linear): Linear(in_features=128, out_features=128, bias=False)
            (attention): Attention()
            (att_dropout): Dropout(p=0.0, inplace=False)
          )
          (self_attn_layer_norm): LayerNorm((128,), eps=1e-05, elementwise_affine=True)
          (fc1): Linear(in_features=128, out_features=128, bias=True)
          (final_layer_norm): LayerNorm((128,), eps=1e-05, elementwise_affine=True)
        )
        (1): HPformerSentenceEncoderLayer(
          (dropout_module): FairseqDropout(p=0.1)
          (activation_dropout_module): FairseqDropout(p=0.0)
          (self_attn): MultiheadAttention(
            (output_linear): Linear(in_features=128, out_features=128, bias=False)
            (attention): Attention()
            (att_dropout): Dropout(p=0.0, inplace=False)
          )
          (self_attn_layer_norm): LayerNorm((128,), eps=1e-05, elementwise_affine=True)
          (fc1): Linear(in_features=128, out_features=128, bias=True)
          (final_layer_norm): LayerNorm((128,), eps=1e-05, elementwise_affine=True)
        )
        (2): HPformerSentenceEncoderLayer(
          (dropout_module): FairseqDropout(p=0.1)
          (activation_dropout_module): FairseqDropout(p=0.0)
          (self_attn): MultiheadAttention(
            (output_linear): Linear(in_features=128, out_features=128, bias=False)
            (attention): Attention()
            (att_dropout): Dropout(p=0.0, inplace=False)
          )
          (self_attn_layer_norm): LayerNorm((128,), eps=1e-05, elementwise_affine=True)
          (fc1): Linear(in_features=128, out_features=128, bias=True)
          (final_layer_norm): LayerNorm((128,), eps=1e-05, elementwise_affine=True)
        )
        (3): HPformerSentenceEncoderLayer(
          (dropout_module): FairseqDropout(p=0.1)
          (activation_dropout_module): FairseqDropout(p=0.0)
          (self_attn): MultiheadAttention(
            (output_linear): Linear(in_features=128, out_features=128, bias=False)
            (attention): Attention()
            (att_dropout): Dropout(p=0.0, inplace=False)
          )
          (self_attn_layer_norm): LayerNorm((128,), eps=1e-05, elementwise_affine=True)
          (fc1): Linear(in_features=128, out_features=128, bias=True)
          (final_layer_norm): LayerNorm((128,), eps=1e-05, elementwise_affine=True)
        )
        (4): HPformerSentenceEncoderLayer(
          (dropout_module): FairseqDropout(p=0.1)
          (activation_dropout_module): FairseqDropout(p=0.0)
          (self_attn): MultiheadAttention(
            (output_linear): Linear(in_features=128, out_features=128, bias=False)
            (attention): Attention()
            (att_dropout): Dropout(p=0.0, inplace=False)
          )
          (self_attn_layer_norm): LayerNorm((128,), eps=1e-05, elementwise_affine=True)
          (fc1): Linear(in_features=128, out_features=128, bias=True)
          (final_layer_norm): LayerNorm((128,), eps=1e-05, elementwise_affine=True)
        )
        (5): HPformerSentenceEncoderLayer(
          (dropout_module): FairseqDropout(p=0.1)
          (activation_dropout_module): FairseqDropout(p=0.0)
          (self_attn): MultiheadAttention(
            (output_linear): Linear(in_features=128, out_features=128, bias=False)
            (attention): Attention()
            (att_dropout): Dropout(p=0.0, inplace=False)
          )
          (self_attn_layer_norm): LayerNorm((128,), eps=1e-05, elementwise_affine=True)
          (fc1): Linear(in_features=128, out_features=128, bias=True)
          (final_layer_norm): LayerNorm((128,), eps=1e-05, elementwise_affine=True)
        )
      )
    )
  )
  (dropout_module): FairseqDropout(p=0.1)
  (classifier): ModuleList(
    (0): Sequential(
      (0): Linear(in_features=256, out_features=256, bias=True)
      (1): FairseqDropout(p=0.1)
    )
  )
  (sentence_projection_layer): Linear(in_features=256, out_features=2, bias=False)
)
2025-03-17 18:01:23 | INFO | fairseq_cli.train | task: lra-text (LRATextTask)
2025-03-17 18:01:23 | INFO | fairseq_cli.train | model: hpformer_lra_aan (LRAModel)
2025-03-17 18:01:23 | INFO | fairseq_cli.train | criterion: lra_cross_entropy (LRACrossEntropyCriterion)
2025-03-17 18:01:23 | INFO | fairseq_cli.train | num. model params: 313088 (num. trained: 313088)
…
