…
_updates=0, wandb_entity=None, wandb_id=None, wandb_project=None, warmup_updates=666, weight_decay=0.15, z_dim=128)
2025-03-24 18:27:30 | INFO | fairseq.tasks.long_range_arena | Loaded valid with #samples: 5000
2025-03-24 18:27:30 | INFO | fairseq_cli.train | LRAModel(
  (encoder): LRAEncoder(
    (encoder): HPformerLRAEncoder(
      (dropout_module): FairseqDropout(p=0.2)
      (embed_tokens): RealNumberEmbedding()
      (embed_positions): SinusoidalPositionalEmbedding()
      (tdhp): TDHPB_Layer(
        (block_level_att): Attention()
        (step_level_att): Attention()
        (fusion_lin): Linear(in_features=512, out_features=256, bias=True)
      )
      (layers): ModuleList(
        (0): HPformerSentenceEncoderLayer(
          (dropout_module): FairseqDropout(p=0.2)
          (activation_dropout_module): FairseqDropout(p=0.2)
          (self_attn): MultiheadAttention(
            (output_linear): Linear(in_features=256, out_features=256, bias=False)
            (attention): Attention()
            (att_dropout): Dropout(p=0.2, inplace=False)
          )
          (self_attn_layer_norm): LayerNorm((256,), eps=1e-05, elementwise_affine=True)
          (fc1): Linear(in_features=256, out_features=256, bias=True)
          (final_layer_norm): LayerNorm((256,), eps=1e-05, elementwise_affine=True)
        )
        (1): HPformerSentenceEncoderLayer(
          (dropout_module): FairseqDropout(p=0.2)
          (activation_dropout_module): FairseqDropout(p=0.2)
          (self_attn): MultiheadAttention(
            (output_linear): Linear(in_features=256, out_features=256, bias=False)
            (attention): Attention()
            (att_dropout): Dropout(p=0.2, inplace=False)
          )
          (self_attn_layer_norm): LayerNorm((256,), eps=1e-05, elementwise_affine=True)
          (fc1): Linear(in_features=256, out_features=256, bias=True)
          (final_layer_norm): LayerNorm((256,), eps=1e-05, elementwise_affine=True)
        )
        (2): HPformerSentenceEncoderLayer(
          (dropout_module): FairseqDropout(p=0.2)
          (activation_dropout_module): FairseqDropout(p=0.2)
          (self_attn): MultiheadAttention(
            (output_linear): Linear(in_features=256, out_features=256, bias=False)
            (attention): Attention()
            (att_dropout): Dropout(p=0.2, inplace=False)
          )
          (self_attn_layer_norm): LayerNorm((256,), eps=1e-05, elementwise_affine=True)
          (fc1): Linear(in_features=256, out_features=256, bias=True)
          (final_layer_norm): LayerNorm((256,), eps=1e-05, elementwise_affine=True)
        )
        (3): HPformerSentenceEncoderLayer(
          (dropout_module): FairseqDropout(p=0.2)
          (activation_dropout_module): FairseqDropout(p=0.2)
          (self_attn): MultiheadAttention(
            (output_linear): Linear(in_features=256, out_features=256, bias=False)
            (attention): Attention()
            (att_dropout): Dropout(p=0.2, inplace=False)
          )
          (self_attn_layer_norm): LayerNorm((256,), eps=1e-05, elementwise_affine=True)
          (fc1): Linear(in_features=256, out_features=256, bias=True)
          (final_layer_norm): LayerNorm((256,), eps=1e-05, elementwise_affine=True)
        )
        (4): HPformerSentenceEncoderLayer(
          (dropout_module): FairseqDropout(p=0.2)
          (activation_dropout_module): FairseqDropout(p=0.2)
          (self_attn): MultiheadAttention(
            (output_linear): Linear(in_features=256, out_features=256, bias=False)
            (attention): Attention()
            (att_dropout): Dropout(p=0.2, inplace=False)
          )
          (self_attn_layer_norm): LayerNorm((256,), eps=1e-05, elementwise_affine=True)
          (fc1): Linear(in_features=256, out_features=256, bias=True)
          (final_layer_norm): LayerNorm((256,), eps=1e-05, elementwise_affine=True)
        )
        (5): HPformerSentenceEncoderLayer(
          (dropout_module): FairseqDropout(p=0.2)
          (activation_dropout_module): FairseqDropout(p=0.2)
          (self_attn): MultiheadAttention(
            (output_linear): Linear(in_features=256, out_features=256, bias=False)
            (attention): Attention()
            (att_dropout): Dropout(p=0.2, inplace=False)
          )
          (self_attn_layer_norm): LayerNorm((256,), eps=1e-05, elementwise_affine=True)
          (fc1): Linear(in_features=256, out_features=256, bias=True)
          (final_layer_norm): LayerNorm((256,), eps=1e-05, elementwise_affine=True)
        )
        (6): HPformerSentenceEncoderLayer(
          (dropout_module): FairseqDropout(p=0.2)
          (activation_dropout_module): FairseqDropout(p=0.2)
          (self_attn): MultiheadAttention(
            (output_linear): Linear(in_features=256, out_features=256, bias=False)
            (attention): Attention()
            (att_dropout): Dropout(p=0.2, inplace=False)
          )
          (self_attn_layer_norm): LayerNorm((256,), eps=1e-05, elementwise_affine=True)
          (fc1): Linear(in_features=256, out_features=256, bias=True)
          (final_layer_norm): LayerNorm((256,), eps=1e-05, elementwise_affine=True)
        )
        (7): HPformerSentenceEncoderLayer(
          (dropout_module): FairseqDropout(p=0.2)
          (activation_dropout_module): FairseqDropout(p=0.2)
          (self_attn): MultiheadAttention(
            (output_linear): Linear(in_features=256, out_features=256, bias=False)
            (attention): Attention()
            (att_dropout): Dropout(p=0.2, inplace=False)
          )
          (self_attn_layer_norm): LayerNorm((256,), eps=1e-05, elementwise_affine=True)
          (fc1): Linear(in_features=256, out_features=256, bias=True)
          (final_layer_norm): LayerNorm((256,), eps=1e-05, elementwise_affine=True)
        )
      )
      (emb_layer_norm): LayerNorm((256,), eps=1e-05, elementwise_affine=True)
    )
  )
  (dropout_module): FairseqDropout(p=0.2)
  (classifier): ModuleList(
    (0): Sequential(
      (0): Linear(in_features=256, out_features=320, bias=True)
      (1): FairseqDropout(p=0.2)
    )
  )
  (sentence_projection_layer): Linear(in_features=320, out_features=10, bias=False)
)
2025-03-24 18:27:30 | INFO | fairseq_cli.train | task: lra-image (LRAImageTask)
2025-03-24 18:27:30 | INFO | fairseq_cli.train | model: hpformer_lra_cifar10 (LRAModel)
2025-03-24 18:27:30 | INFO | fairseq_cli.train | criterion: lra_cross_entropy (LRACrossEntropyCriterion)
2025-03-24 18:27:30 | INFO | fairseq_cli.train | num. model params: 1276608 (num. trained: 1276608)
…
