…
2025-03-16 23:42:58 | INFO | fairseq.tasks.long_range_arena | [label] dictionary: 8 types
2025-03-16 23:42:58 | INFO | fairseq.data.data_utils | loaded 25000 examples from: /home/leew/lra_data/imdb-4000/src-bin/valid
2025-03-16 23:42:58 | INFO | fairseq.data.data_utils | loaded 25000 examples from: /home/leew/lra_data/imdb-4000/label-bin/valid
2025-03-16 23:42:58 | INFO | fairseq.tasks.long_range_arena | Loaded valid with #samples: 25000
2025-03-16 23:42:58 | INFO | fairseq_cli.train | LRAModel(
  (encoder): LRAEncoder(
    (encoder): HPformerLRAEncoder(
      (dropout_module): FairseqDropout(p=0.3)
      (embed_tokens): Embedding(169, 256, padding_idx=1)
      (embed_positions): SinusoidalPositionalEmbedding()
      (tdhp): TDHPB_Layer(
        (block_level_att): Attention()
        (step_level_att): Attention()
        (fusion_lin): Linear(in_features=512, out_features=256, bias=True)
      )
      (layers): ModuleList(
        (0): HPformerSentenceEncoderLayer(
          (dropout_module): FairseqDropout(p=0.3)
          (activation_dropout_module): FairseqDropout(p=0.3)
          (self_attn): MultiheadAttention(
            (output_linear): Linear(in_features=256, out_features=256, bias=False)
            (attention): Attention()
            (att_dropout): Dropout(p=0.3, inplace=False)
          )
          (self_attn_layer_norm): LayerNorm((256,), eps=1e-05, elementwise_affine=True)
          (fc1): Linear(in_features=256, out_features=256, bias=True)
          (final_layer_norm): LayerNorm((256,), eps=1e-05, elementwise_affine=True)
        )
        (1): HPformerSentenceEncoderLayer(
          (dropout_module): FairseqDropout(p=0.3)
          (activation_dropout_module): FairseqDropout(p=0.3)
          (self_attn): MultiheadAttention(
            (output_linear): Linear(in_features=256, out_features=256, bias=False)
            (attention): Attention()
            (att_dropout): Dropout(p=0.3, inplace=False)
          )
          (self_attn_layer_norm): LayerNorm((256,), eps=1e-05, elementwise_affine=True)
          (fc1): Linear(in_features=256, out_features=256, bias=True)
          (final_layer_norm): LayerNorm((256,), eps=1e-05, elementwise_affine=True)
        )
        (2): HPformerSentenceEncoderLayer(
          (dropout_module): FairseqDropout(p=0.3)
          (activation_dropout_module): FairseqDropout(p=0.3)
          (self_attn): MultiheadAttention(
            (output_linear): Linear(in_features=256, out_features=256, bias=False)
            (attention): Attention()
            (att_dropout): Dropout(p=0.3, inplace=False)
          )
          (self_attn_layer_norm): LayerNorm((256,), eps=1e-05, elementwise_affine=True)
          (fc1): Linear(in_features=256, out_features=256, bias=True)
          (final_layer_norm): LayerNorm((256,), eps=1e-05, elementwise_affine=True)
        )
        (3): HPformerSentenceEncoderLayer(
          (dropout_module): FairseqDropout(p=0.3)
          (activation_dropout_module): FairseqDropout(p=0.3)
          (self_attn): MultiheadAttention(
            (output_linear): Linear(in_features=256, out_features=256, bias=False)
            (attention): Attention()
            (att_dropout): Dropout(p=0.3, inplace=False)
          )
          (self_attn_layer_norm): LayerNorm((256,), eps=1e-05, elementwise_affine=True)
          (fc1): Linear(in_features=256, out_features=256, bias=True)
          (final_layer_norm): LayerNorm((256,), eps=1e-05, elementwise_affine=True)
        )
      )
      (emb_layer_norm): LayerNorm((256,), eps=1e-05, elementwise_affine=True)
    )
  )
  (dropout_module): FairseqDropout(p=0.3)
  (classifier): ModuleList(
    (0): Sequential(
      (0): Linear(in_features=256, out_features=256, bias=True)
      (1): FairseqDropout(p=0.3)
    )
  )
  (sentence_projection_layer): Linear(in_features=256, out_features=2, bias=False)
)
2025-03-16 23:42:58 | INFO | fairseq_cli.train | task: lra-text (LRATextTask)
2025-03-16 23:42:58 | INFO | fairseq_cli.train | model: hpformer_lra_imdb (LRAModel)
2025-03-16 23:42:58 | INFO | fairseq_cli.train | criterion: lra_cross_entropy (LRACrossEntropyCriterion)
2025-03-16 23:42:58 | INFO | fairseq_cli.train | num. model params: 770816 (num. trained: 770816)
…
