…
2025-03-26 00:42:05 | INFO | fairseq.tasks.long_range_arena | [label] dictionary: 16 types
2025-03-26 00:42:05 | INFO | fairseq.data.data_utils | loaded 2000 examples from: /home/leew/lra_data/listops/src-bin/valid
2025-03-26 00:42:05 | INFO | fairseq.data.data_utils | loaded 2000 examples from: /home/leew/lra_data/listops/label-bin/valid
2025-03-26 00:42:05 | INFO | fairseq.tasks.long_range_arena | Loaded valid with #samples: 2000
2025-03-26 00:42:05 | INFO | fairseq_cli.train | LRAModel(
  (encoder): LRAEncoder(
    (encoder): HPformerLRAEncoder(
      (dropout_module): FairseqDropout(p=0.2)
      (embed_tokens): Embedding(25, 160, padding_idx=1)
      (embed_positions): SinusoidalPositionalEmbedding()
      (tdhp): TDHPB_Layer(
        (block_level_att): Attention()
        (step_level_att): Attention()
        (fusion_lin): Linear(in_features=320, out_features=160, bias=True)
      )
      (layers): ModuleList(
        (0): HPformerSentenceEncoderLayer(
          (dropout_module): FairseqDropout(p=0.2)
          (activation_dropout_module): FairseqDropout(p=0.2)
          (self_attn): MultiheadAttention(
            (output_linear): Linear(in_features=160, out_features=160, bias=False)
            (attention): Attention()
            (att_dropout): Dropout(p=0.0, inplace=False)
          )
          (self_attn_layer_norm): LayerNorm((160,), eps=1e-05, elementwise_affine=True)
          (fc1): Linear(in_features=160, out_features=160, bias=True)
          (final_layer_norm): LayerNorm((160,), eps=1e-05, elementwise_affine=True)
        )
        (1): HPformerSentenceEncoderLayer(
          (dropout_module): FairseqDropout(p=0.2)
          (activation_dropout_module): FairseqDropout(p=0.2)
          (self_attn): MultiheadAttention(
            (output_linear): Linear(in_features=160, out_features=160, bias=False)
            (attention): Attention()
            (att_dropout): Dropout(p=0.0, inplace=False)
          )
          (self_attn_layer_norm): LayerNorm((160,), eps=1e-05, elementwise_affine=True)
          (fc1): Linear(in_features=160, out_features=160, bias=True)
          (final_layer_norm): LayerNorm((160,), eps=1e-05, elementwise_affine=True)
        )
        (2): HPformerSentenceEncoderLayer(
          (dropout_module): FairseqDropout(p=0.2)
          (activation_dropout_module): FairseqDropout(p=0.2)
          (self_attn): MultiheadAttention(
            (output_linear): Linear(in_features=160, out_features=160, bias=False)
            (attention): Attention()
            (att_dropout): Dropout(p=0.0, inplace=False)
          )
          (self_attn_layer_norm): LayerNorm((160,), eps=1e-05, elementwise_affine=True)
          (fc1): Linear(in_features=160, out_features=160, bias=True)
          (final_layer_norm): LayerNorm((160,), eps=1e-05, elementwise_affine=True)
        )
        (3): HPformerSentenceEncoderLayer(
          (dropout_module): FairseqDropout(p=0.2)
          (activation_dropout_module): FairseqDropout(p=0.2)
          (self_attn): MultiheadAttention(
            (output_linear): Linear(in_features=160, out_features=160, bias=False)
            (attention): Attention()
            (att_dropout): Dropout(p=0.0, inplace=False)
          )
          (self_attn_layer_norm): LayerNorm((160,), eps=1e-05, elementwise_affine=True)
          (fc1): Linear(in_features=160, out_features=160, bias=True)
          (final_layer_norm): LayerNorm((160,), eps=1e-05, elementwise_affine=True)
        )
        (4): HPformerSentenceEncoderLayer(
          (dropout_module): FairseqDropout(p=0.2)
          (activation_dropout_module): FairseqDropout(p=0.2)
          (self_attn): MultiheadAttention(
            (output_linear): Linear(in_features=160, out_features=160, bias=False)
            (attention): Attention()
            (att_dropout): Dropout(p=0.0, inplace=False)
          )
          (self_attn_layer_norm): LayerNorm((160,), eps=1e-05, elementwise_affine=True)
          (fc1): Linear(in_features=160, out_features=160, bias=True)
          (final_layer_norm): LayerNorm((160,), eps=1e-05, elementwise_affine=True)
        )
        (5): HPformerSentenceEncoderLayer(
          (dropout_module): FairseqDropout(p=0.2)
          (activation_dropout_module): FairseqDropout(p=0.2)
          (self_attn): MultiheadAttention(
            (output_linear): Linear(in_features=160, out_features=160, bias=False)
            (attention): Attention()
            (att_dropout): Dropout(p=0.0, inplace=False)
          )
          (self_attn_layer_norm): LayerNorm((160,), eps=1e-05, elementwise_affine=True)
          (fc1): Linear(in_features=160, out_features=160, bias=True)
          (final_layer_norm): LayerNorm((160,), eps=1e-05, elementwise_affine=True)
        )
      )
    )
  )
  (dropout_module): FairseqDropout(p=0.2)
  (classifier): ModuleList(
    (0): Sequential(
      (0): Linear(in_features=160, out_features=160, bias=True)
      (1): FairseqDropout(p=0.2)
    )
  )
  (sentence_projection_layer): Linear(in_features=160, out_features=10, bias=False)
)
2025-03-26 00:42:05 | INFO | fairseq_cli.train | task: lra-text (LRATextTask)
2025-03-26 00:42:05 | INFO | fairseq_cli.train | model: hpformer_lra_listop (LRAModel)
2025-03-26 00:42:05 | INFO | fairseq_cli.train | criterion: lra_cross_entropy (LRACrossEntropyCriterion)
2025-03-26 00:42:05 | INFO | fairseq_cli.train | num. model params: 394720 (num. trained: 394720)
…
