…
one, wandb_project=None, warmup_init_lr=2e-06, warmup_power=1, warmup_updates=1500, weight_decay=0.05, z_dim=128)
2025-04-12 18:27:29 | INFO | fairseq.tasks.long_range_arena | Loaded valid with #samples: 20000
2025-04-12 18:27:29 | INFO | fairseq_cli.train | LRAModel(
  (encoder): LRAEncoder(
    (encoder): HPformerLRAEncoder(
      (dropout_module): FairseqDropout(p=0.26)
      (embed_tokens): RealNumberEmbedding()
      (embed_positions): SinusoidalPositionalEmbedding()
      (tdhp): TDHPB_Layer(
        (block_level_att): Attention()
        (step_level_att): Attention()
        (fusion_lin): Linear(in_features=256, out_features=128, bias=True)
      )
      (layers): ModuleList(
        (0): HPformerSentenceEncoderLayer(
          (dropout_module): FairseqDropout(p=0.26)
          (activation_dropout_module): FairseqDropout(p=0.26)
          (self_attn): MultiheadAttention(
            (output_linear): Linear(in_features=128, out_features=128, bias=False)
            (attention): Attention()
            (att_dropout): Dropout(p=0.26, inplace=False)
          )
          (self_attn_layer_norm): SequenceNorm(
            (norm): BatchNorm1d(128, eps=1e-05, momentum=0.1, affine=True, track_running_stats=True)
          )
          (fc1): Linear(in_features=128, out_features=128, bias=True)
          (final_layer_norm): SequenceNorm(
            (norm): BatchNorm1d(128, eps=1e-05, momentum=0.1, affine=True, track_running_stats=True)
          )
        )
        (1): HPformerSentenceEncoderLayer(
          (dropout_module): FairseqDropout(p=0.26)
          (activation_dropout_module): FairseqDropout(p=0.26)
          (self_attn): MultiheadAttention(
            (output_linear): Linear(in_features=128, out_features=128, bias=False)
            (attention): Attention()
            (att_dropout): Dropout(p=0.26, inplace=False)
          )
          (self_attn_layer_norm): SequenceNorm(
            (norm): BatchNorm1d(128, eps=1e-05, momentum=0.1, affine=True, track_running_stats=True)
          )
          (fc1): Linear(in_features=128, out_features=128, bias=True)
          (final_layer_norm): SequenceNorm(
            (norm): BatchNorm1d(128, eps=1e-05, momentum=0.1, affine=True, track_running_stats=True)
          )
        )
        (2): HPformerSentenceEncoderLayer(
          (dropout_module): FairseqDropout(p=0.26)
          (activation_dropout_module): FairseqDropout(p=0.26)
          (self_attn): MultiheadAttention(
            (output_linear): Linear(in_features=128, out_features=128, bias=False)
            (attention): Attention()
            (att_dropout): Dropout(p=0.26, inplace=False)
          )
          (self_attn_layer_norm): SequenceNorm(
            (norm): BatchNorm1d(128, eps=1e-05, momentum=0.1, affine=True, track_running_stats=True)
          )
          (fc1): Linear(in_features=128, out_features=128, bias=True)
          (final_layer_norm): SequenceNorm(
            (norm): BatchNorm1d(128, eps=1e-05, momentum=0.1, affine=True, track_running_stats=True)
          )
        )
        (3): HPformerSentenceEncoderLayer(
          (dropout_module): FairseqDropout(p=0.26)
          (activation_dropout_module): FairseqDropout(p=0.26)
          (self_attn): MultiheadAttention(
            (output_linear): Linear(in_features=128, out_features=128, bias=False)
            (attention): Attention()
            (att_dropout): Dropout(p=0.26, inplace=False)
          )
          (self_attn_layer_norm): SequenceNorm(
            (norm): BatchNorm1d(128, eps=1e-05, momentum=0.1, affine=True, track_running_stats=True)
          )
          (fc1): Linear(in_features=128, out_features=128, bias=True)
          (final_layer_norm): SequenceNorm(
            (norm): BatchNorm1d(128, eps=1e-05, momentum=0.1, affine=True, track_running_stats=True)
          )
        )
      )
      (emb_layer_norm): LayerNorm((128,), eps=1e-05, elementwise_affine=True)
    )
  )
  (dropout_module): FairseqDropout(p=0.26)
  (classifier): ModuleList(
    (0): Sequential(
      (0): Linear(in_features=128, out_features=256, bias=True)
      (1): FairseqDropout(p=0.26)
    )
  )
  (sentence_projection_layer): Linear(in_features=256, out_features=2, bias=False)
)
2025-04-12 18:27:29 | INFO | fairseq_cli.train | task: lra-image (LRAImageTask)
2025-04-12 18:27:29 | INFO | fairseq_cli.train | model: hpformer_lra_pf32 (LRAModel)
2025-04-12 18:27:29 | INFO | fairseq_cli.train | criterion: lra_cross_entropy (LRACrossEntropyCriterion)
2025-04-12 18:27:29 | INFO | fairseq_cli.train | num. model params: 200576 (num. trained: 200576)
…
